name: "AlexNet_Classifier_Test"
layer {
  name: "data"
  type: "Input"
  top: "data"
  input_param { shape: { dim: 30 dim: 4096 dim: 1 dim: 1 } }
}

layer {
  name: "fc7-ft"
  type: "InnerProduct"
  bottom: "data"
  top: "fc7-ft"
  param {
    lr_mult: 1
    decay_mult: 1
  }
  param {
    lr_mult: 2
    decay_mult: 0
  }
  inner_product_param {
    num_output: 512
    weight_filler {
      type: "gaussian"
      std: 0.01
    }
    bias_filler {
      type: "constant"
      value: 0
    }
  }
}

layer {
  name: "relu7-ft"
  type: "ReLU"
  bottom: "fc7-ft"
  top: "fc7-ft"
}

layer {
  name: "drop7-ft"
  type: "Dropout"
  bottom: "fc7-ft"
  top: "fc7-ft"
  dropout_param {
    dropout_ratio: 0.5
  }
}

layer {
  name: "fc8-ft"
  type: "InnerProduct"
  bottom: "fc7-ft"
  top: "fc8-ft"
  param {
    lr_mult: 1
    decay_mult: 1
  }
  param {
    lr_mult: 2
    decay_mult: 0
  }
  inner_product_param {
    num_output: 256
    weight_filler {
      type: "gaussian"
      std: 0.01
    }
    bias_filler {
      type: "constant"
      value: 0
    }
  }
}

layer {
  name: "relu8-ft"
  type: "ReLU"
  bottom: "fc8-ft"
  top: "fc8-ft"
}

layer {
  name: "drop8-ft"
  type: "Dropout"
  bottom: "fc8-ft"
  top: "fc8-ft"
  dropout_param {
    dropout_ratio: 0.5
  }
}

layer {
  name: "fc9-ft"
  type: "InnerProduct"
  bottom: "fc8-ft"
  top: "fc9-ft"
  param {
    lr_mult: 1
    decay_mult: 1
  }
  param {
    lr_mult: 2
    decay_mult: 0
  }
  inner_product_param {
    num_output: 11
    weight_filler {
      type: "gaussian"
      std: 0.01
    }
    bias_filler {
      type: "constant"
      value: 0
    }
  }
}

layer {
  name: "prob"
  type: "Softmax"
  bottom: "fc9-ft"
  top: "prob"
}


