name: "cnn_social_data_feat"

layer {
  name: "data"
  type: "Input"
  top: "data"
  input_param { shape: { dim: 1 dim: 8 dim: 227 dim: 227 } }
}

layer {
  name: "data2"
  type: "Input"
  top: "data2"
  input_param { shape: { dim: 1 dim: 1 dim: 1 dim: 48 } }
}

layer {
  name: "conv1-so"
  type: "Convolution"
  bottom: "data2"
  top: "conv1-so"
  param {
    lr_mult: 1
    decay_mult: 1
  }
  param {
    lr_mult: 2
    decay_mult: 0
  }
  convolution_param {
    num_output: 32
    kernel_h: 1
    kernel_w: 3
    stride: 1
  }
}

layer {
  name: "relu1-so"
  type: "ReLU"
  bottom: "conv1-so"
  top: "conv1-so"
}

layer {
  name: "norm1-so"
  type: "LRN"
  bottom: "conv1-so"
  top: "conv1-so"
  lrn_param {
    local_size: 5
    alpha: 1
    beta: 0.75
  }
}

layer {
  name: "pool1-so"
  type: "Pooling"
  bottom: "conv1-so"
  top: "pool1-so"
  pooling_param {
    pool: MAX
    kernel_h: 1
    kernel_w: 2
    stride: 2
  }
}

layer {
  name: "conv2-so"
  type: "Convolution"
  bottom: "pool1-so"
  top: "conv2-so"
  param {
    lr_mult: 1
    decay_mult: 1
  }
  param {
    lr_mult: 2
    decay_mult: 0
  }
  convolution_param {
    num_output: 64
    kernel_h: 1
    kernel_w: 3
    stride: 1
  }
}

layer {
  name: "relu2-so"
  type: "ReLU"
  bottom: "conv2-so"
  top: "conv2-so"
}

layer {
  name: "norm2-so"
  type: "LRN"
  bottom: "conv2-so"
  top: "conv2-so"
  lrn_param {
    local_size: 5
    alpha: 1
    beta: 0.75
  }
}

layer {
  name: "pool2-so"
  type: "Pooling"
  bottom: "conv2-so"
  top: "pool2-so"
  pooling_param {
    pool: MAX
    kernel_h: 1
    kernel_w: 2
    stride: 2
  }
}

layer {
  name: "conv3-so"
  type: "Convolution"
  bottom: "pool2-so"
  top: "conv3-so"
  param {
    lr_mult: 1
    decay_mult: 1
  }
  param {
    lr_mult: 2
    decay_mult: 0
  }
  convolution_param {
    num_output: 32
    kernel_h: 1
    kernel_w: 3
    stride: 1
    weight_filler {
      type: "gaussian"
      std: 0.01
    }
    bias_filler {
      type: "constant"
      value: 0
    }
  }
}

layer {
  name: "relu3-so"
  type: "ReLU"
  bottom: "conv3-so"
  top: "conv3-so"
}

layer {
  name: "norm3-so"
  type: "LRN"
  bottom: "conv3-so"
  top: "conv3-so"
  lrn_param {
    local_size: 5
    alpha: 1
    beta: 0.75
  }
}

layer {
  name: "pool3-so"
  type: "Pooling"
  bottom: "conv3-so"
  top: "pool3-so"
  pooling_param {
    pool: AVE
    kernel_h: 1
    kernel_w: 2
    stride: 2
  }
}

layer {
  name: "slice_data"
  type: "Slice"
  bottom: "data"
  top: "data_rgb"
  top: "data_other"
  slice_param {
     axis: 1
     slice_point: 3
  }
}

layer {
  name: "conv1"
  type: "Convolution"
  bottom: "data_rgb"
  top: "conv1"
  param {
    lr_mult: 0.1
    decay_mult: 0.1
  }
  param {
    lr_mult: 0.2
    decay_mult: 0
  }
  convolution_param {
    num_output: 96
    kernel_size: 11
    stride: 4
  }
}

layer {
  name: "relu1"
  type: "ReLU"
  bottom: "conv1"
  top: "conv1"
}

layer {
  name: "norm1"
  type: "LRN"
  bottom: "conv1"
  top: "norm1"
  lrn_param {
    local_size: 5
    alpha: 0.0001
    beta: 0.75
  }
}

layer {
  name: "pool1"
  type: "Pooling"
  bottom: "norm1"
  top: "pool1"
  pooling_param {
    pool: MAX
    kernel_size: 3
    stride: 2
  }
}

layer {
  name: "conv2"
  type: "Convolution"
  bottom: "pool1"
  top: "conv2"
  param {
    lr_mult: 0.1
    decay_mult: 0.1
  }
  param {
    lr_mult: 0.2
    decay_mult: 0
  }
  convolution_param {
    num_output: 256
    pad: 2
    kernel_size: 5
    group: 2
  }
}
layer {
  name: "relu2"
  type: "ReLU"
  bottom: "conv2"
  top: "conv2"
}
layer {
  name: "norm2"
  type: "LRN"
  bottom: "conv2"
  top: "norm2"
  lrn_param {
    local_size: 5
    alpha: 0.0001
    beta: 0.75
  }
}
layer {
  name: "pool2"
  type: "Pooling"
  bottom: "norm2"
  top: "pool2"
  pooling_param {
    pool: MAX
    kernel_size: 3
    stride: 2
  }
}

layer {
  name: "conv3"
  type: "Convolution"
  bottom: "pool2"
  top: "conv3"
  param {
    lr_mult: 0.1
    decay_mult: 0.1
  }
  param {
    lr_mult: 0.2
    decay_mult: 0
  }
  convolution_param {
    num_output: 384
    pad: 1
    kernel_size: 3
  }
}

layer {
  name: "relu3"
  type: "ReLU"
  bottom: "conv3"
  top: "conv3"
}

layer {
  name: "conv4"
  type: "Convolution"
  bottom: "conv3"
  top: "conv4"
  param {
    lr_mult: 0.1
    decay_mult: 0.1
  }
  param {
    lr_mult: 0.2
    decay_mult: 0
  }
  convolution_param {
    num_output: 384
    pad: 1
    kernel_size: 3
    group: 2
  }
}

layer {
  name: "relu4"
  type: "ReLU"
  bottom: "conv4"
  top: "conv4"
}

layer {
  name: "conv5"
  type: "Convolution"
  bottom: "conv4"
  top: "conv5"
  param {
    lr_mult: 0.1
    decay_mult: 0.1
  }
  param {
    lr_mult: 0.2
    decay_mult: 0
  }
  convolution_param {
    num_output: 256
    pad: 1
    kernel_size: 3
    group: 2
  }
}

layer {
  name: "relu5"
  type: "ReLU"
  bottom: "conv5"
  top: "conv5"
}

layer {
  name: "pool5"
  type: "Pooling"
  bottom: "conv5"
  top: "pool5"
  pooling_param {
    pool: MAX
    kernel_size: 3
    stride: 2
  }
}

layer {
  name: "fc6"
  type: "InnerProduct"
  bottom: "pool5"
  top: "fc6"
  param {
    lr_mult: 0.1
    decay_mult: 0.1
  }
  param {
    lr_mult: 0.2
    decay_mult: 0
  }
  inner_product_param {
    num_output: 4096
  }
}

layer {
  name: "relu6"
  type: "ReLU"
  bottom: "fc6"
  top: "fc6"
}

layer {
  name: "drop6"
  type: "Dropout"
  bottom: "fc6"
  top: "fc6"
  dropout_param {
    dropout_ratio: 0.5
  }
}

layer {
  name: "fc7-ft"
  type: "InnerProduct"
  bottom: "fc6"
  top: "fc7-ft"
  param {
    lr_mult: 0.1
    decay_mult: 0.1
  }
  param {
    lr_mult: 0.2
    decay_mult: 0
  }
  inner_product_param {
    num_output: 512
  }
}

layer {
  name: "relu7-ft"
  type: "ReLU"
  bottom: "fc7-ft"
  top: "fc7-ft"
}

layer {
  name: "drop7-ft"
  type: "Dropout"
  bottom: "fc7-ft"
  top: "fc7-ft"
  dropout_param {
    dropout_ratio: 0.5
  }
}


layer {
  name: "fc8-ft"
  type: "InnerProduct"
  bottom: "fc7-ft"
  top: "fc8-ft"
  param {
    lr_mult: 0.1
    decay_mult: 0.1
  }
  param {
    lr_mult: 0.2
    decay_mult: 0
  }
  inner_product_param {
    num_output: 256
  }
}

layer {
  name: "relu8-ft"
  type: "ReLU"
  bottom: "fc8-ft"
  top: "fc8-ft"
}

layer {
  name: "drop8-ft"
  type: "Dropout"
  bottom: "fc8-ft"
  top: "fc8-ft"
  dropout_param {
    dropout_ratio: 0.5
  }
}

layer {
  name: "reshape-so"
  type: "Reshape"
  bottom: "pool3-so"
  top: "pool3-sor"
  reshape_param { shape: {dim: 0 dim: -1} }
}

layer {
  name: "concat"
  type: "Concat"
  bottom: "fc8-ft"
  bottom: "pool3-sor"
  top: "concat-fc"
}

layer {
  name: "fc4-alex-so"
  type: "InnerProduct"
  bottom: "concat-fc"
  top: "fc4-soa"
  param {
    lr_mult: 1
    decay_mult: 1
  }
  param {
    lr_mult: 2
    decay_mult: 0
  }
  inner_product_param {
    num_output: 256
  }
}

layer {
  name: "relu4-alex-so"
  type: "ReLU"
  bottom: "fc4-soa"
  top: "fc4-soa"
}

layer {
  name: "drop4-alex-so"
  type: "Dropout"
  bottom: "fc4-soa"
  top: "fc4-soa"
  dropout_param {
    dropout_ratio: 0.5
  }
}

layer {
  name: "conv1-sn"
  type: "Convolution"
  bottom: "data"
  top: "conv1-sn"
  param {
    lr_mult: 0.1
    decay_mult: 0.1
  }
  param {
    lr_mult: 0.2
    decay_mult: 0
  }
  convolution_param {
    num_output: 64
    kernel_size: 5
    stride: 2
  }
}

layer {
  name: "relu1-sn"
  type: "ReLU"
  bottom: "conv1-sn"
  top: "conv1-sn"
}

layer {
  name: "pool1-sn"
  type: "Pooling"
  bottom: "conv1-sn"
  top: "pool1-sn"
  pooling_param {
    pool: MAX
    kernel_size: 3
    stride: 2
  }
}

layer {
  name: "conv2-sn"
  type: "Convolution"
  bottom: "pool1-sn"
  top: "conv2-sn"
  param {
    lr_mult: 0.1
    decay_mult: 0.1
  }
  param {
    lr_mult: 0.2
    decay_mult: 0
  }
  convolution_param {
    num_output: 128
    kernel_size: 3
    pad: 1
    stride: 1
  }
}

layer {
  name: "relu2-sn"
  type: "ReLU"
  bottom: "conv2-sn"
  top: "conv2-sn"
}

layer {
  name: "pool2-sn"
  type: "Pooling"
  bottom: "conv2-sn"
  top: "pool2-sn"
  pooling_param {
    pool: MAX
    kernel_size: 3
    stride: 2
  }
}

layer {
  name: "conv3-sn"
  type: "Convolution"
  bottom: "pool2-sn"
  top: "conv3-sn"
  param {
    lr_mult: 0.1
    decay_mult: 0.1
  }
  param {
    lr_mult: 0.2
    decay_mult: 0
  }
  convolution_param {
    num_output: 256
    kernel_size: 3
    pad: 1
    stride: 1
  }
}

layer {
  name: "relu3-sn"
  type: "ReLU"
  bottom: "conv3-sn"
  top: "conv3-sn"
}

layer {
  name: "pool4-sn"
  type: "Pooling"
  bottom: "conv3-sn"
  top: "pool4-sn"
  pooling_param {
    pool: AVE
    kernel_size: 28
    stride: 1
  }
}

layer {
  name: "fc5-sn"
  type: "InnerProduct"
  bottom: "pool4-sn"
  top: "fc5-sn"
  param {
    lr_mult: 0.1
    decay_mult: 0.1
  }
  param {
    lr_mult: 0.2
    decay_mult: 0
  }
  inner_product_param {
    num_output: 256
  }
}

layer {
  name: "relu5-sn"
  type: "ReLU"
  bottom: "fc5-sn"
  top: "fc5-sn"
}

layer {
  name: "drop5-sn"
  type: "Dropout"
  bottom: "fc5-sn"
  top: "fc5-sn"
  dropout_param {
    dropout_ratio: 0.5
  }
}

layer {
  name: "concat-soasn"
  type: "Concat"
  bottom: "fc4-soa"
  bottom: "fc5-sn"
  top: "concat-soasn"
}

layer {
  name: "fc-soasn"
  type: "InnerProduct"
  bottom: "concat-soasn"
  top: "fc-soasn"
  param {
    lr_mult: 1
    decay_mult: 1
  }
  param {
    lr_mult: 2
    decay_mult: 0
  }
  inner_product_param {
    num_output: 12
  }
}

layer {
  name: "prob"
  type: "Softmax"
  bottom: "fc-soasn"
  top: "prob"
}




